checkpoint_double_dqn_64.pth (torch_old, 28405 bytes, 6 tensors)

fc1.weight f4 [64, 37]
000000 e0 bc a0 3c e0 27 7b bd 70 4d e3 3b b9 f1 2e be
       0.019621313 -0.061317325 0.0069367215 -0.17084397
000010 80 74 29 be 47 b6 89 3d 61 25 af 3b 03 93 a2 3d
       -0.16548347 0.0672422 0.005345032 0.079381965
000020 8f be ee 3d 6c 72 09 3e 1c a2 99 3e 52 9c 42 bf
       0.1165744 0.13422555 0.30006492 -0.76019776
000030 b1 27 66 be cb e9 5b bf 85 b2 1a c0 f4 d2 89 3c
       -0.22476079 -0.85903615 -2.417146 0.016824223
000040 a9 d6 a4 bd 39 1e f6 3d 49 0f f9 3c d7 96 d0 3d
       -0.08048756 0.12017483 0.030402796 0.101850204
000050 25 ea 1e bc 53 62 49 3e f1 4b 03 3d 14 7e 22 3e
       -0.009699379 0.19666414 0.032054845 0.15868407
000060 ac 26 fd 3e b3 ec cd bc 91 24 eb 3d 80 5b a6 bc
       0.49443567 -0.025137281 0.11481584 -0.020307302
000070 b2 28 80 bd c3 e4 8d 3d 15 c5 2e 3d bd 49 a0 bd
       -0.06257762 0.069283985 0.04266842 -0.078265645
000080 c0 3a 67 bd f4 5d 3a 3c a7 01 a0 3d 32 16 3d 3c
       -0.056452513 0.011374939 0.07812815 0.011540936
000090 cd c9 16 bd e4 a4 0a 3e b2 eb fe 3d 83 6b 3d 3e
       -0.036813546 0.13539463 0.12447299 0.18498044
0000a0 f1 10 1a 3e ee 9a 2a 3d 94 4e e6 3e f9 23 ca be
       0.15045525 0.04165166 0.44981825 -0.3948057
0000b0 48 df 32 bf bf af 4e bf d8 af f8 bf b6 2d 38 3b
       -0.6987195 -0.8073692 -1.9428663 0.0028103418
0000c0 ae 6d ef 3d 40 8f c8 3d b8 d7 3e 3e 41 ca 5d 3d
       0.116908416 0.09792948 0.18636978 0.054147962
0000d0 35 08 30 3e a0 da 87 bc 87 1f e1 3d d6 41 56 3e
       0.1719063 -0.01658374 0.109923415 0.20923552
0000e0 5d c3 61 bc 3f fa 8a bc 86 05 ce 3b 5a 5b 4a bd
       -0.013779488 -0.01696503 0.0062872795 -0.049403526
0000f0 57 f8 fd bc 9d 11 1c bd 6f 5a 87 bd 38 a5 1d 3e
       -0.031002207 -0.038102735 -0.06609046 0.15395057
000100 d7 b1 cb 3d 09 5f 83 3e e2 a5 8b 3e b5 c2 23 3e
       0.0994603 0.25658444 0.27274996 0.15992244
000110 55 5b 9f 3d 08 fd c2 3d 59 ca 6c 3e 99 e7 39 3d
       0.07781092 0.09520918 0.23124065 0.045386884
000120 7a e9 f7 bc 5d dd dc b9 5a e0 e7 bc d4 d9 0b 3e
       -0.030262697 -0.00042126598 -0.028305221 0.13657314
000130 81 8f c8 3d 29 d8 1b 3e aa 02 b2 3b d2 bc 4d bf
       0.09792996 0.15219177 0.0054324465 -0.8036624
000140 eb 64 4b 3b 30 70 3a 3e 85 30 c6 3e e3 ee 8b 3e
       0.0031035494 0.18206859 0.38708892 0.27330694
000150 3e c0 1a 3e 62 50 94 be e5 1c f0 3d 8f 9d 8f be
       0.15112397 -0.28967577 0.11724261 -0.28049895
000160 6e 30 fa 3d 80 4d aa bc 6b 1f a3 bc 10 75 13 be
       0.122162685 -0.020788908 -0.019912442 -0.14400125
000170 3a dc 9f 3e cb a4 eb bb 61 77 c7 be 58 74 3f 3d
       0.31222707 -0.0071912757 -0.38958266 0.046741813
000180 48 aa 85 3a 55 4a ea 3d 10 db 6a 3b d3 e3 a5 be
       0.0010197842 0.11439959 0.0035836138 -0.3240038
000190 44 b7 dd 3d 4e c9 2f 3e cb 80 dd 3d 30 3d b0 3d
       0.10825971 0.17166635 0.10815581 0.086054206
0001a0 f2 c0 30 bf ae 45 b1 bd ba b3 73 3d d4 e7 ef bb
       -0.6904441 -0.086558685 0.059497572 -0.0073213372
0001b0 34 3f 55 3e d0 8b 82 bc ac b8 20 bd 91 b7 2f 3e
       0.20824891 -0.015935808 -0.039238617 0.17159869
0001c0 bf fd 88 3d 63 a0 d6 3d 31 ba ee bd 32 00 8b be
       0.06689023 0.1047981 -0.11656607 -0.27148587
0001d0 4f f0 04 be 5c 6e 2c be 85 12 8e 3e a5 80 df be
       -0.12982295 -0.16838974 0.27748504 -0.43652835
0001e0 f6 33 2c 3e fd f1 61 3e 7d cc 98 be 18 cb 05 be
       0.16816697 0.22064967 -0.29843512 -0.13065755
0001f0 f8 a3 80 3e 62 97 7b bd 54 91 c4 bd 8c b0 7f 3e
       0.25125098 -0.061423667 -0.09598032 0.24969691
000200 45 c2 0e be 28 3b 71 be 08 73 4d be 15 7f 16 3d
       -0.13941295 -0.23557723 -0.20063412 0.03674229
000210 e7 1b 1d 3e 81 b6 fa 3c 23 6e fd 3c 0e 76 60 3d
       0.15342675 0.030604603 0.030936306 0.054800086
000220 d4 22 56 be b2 94 c3 bd 37 41 26 3e 25 2a 8b 3e
       -0.20911723 -0.09549846 0.16235815 0.2718059
000230 4b 9f 26 3c 09 25 30 3c 11 a0 32 3e 54 5d 72 3d
       0.010169814 0.010751017 0.17443873 0.059171036
000240 38 c5 82 bb 4d 57 19 bf 8d db 19 3e a1 00 b1 3c
       -0.0039907955 -0.59898835 0.15025158 0.021606745
000250 fa 8f 61 be 77 2a 6c be 41 87 8e bc c5 32 04 bf
       -0.22027579 -0.23063074 -0.017398478 -0.5163997
000260 46 a7 88 be 01 1e 6a 3e 68 89 f5 bc 5f c8 94 be
       -0.2669012 0.22863008 -0.029972747 -0.2905912
000270 8b 7d de bd 8a ed f7 3d e7 16 b7 bd 22 2f c2 bd
       -0.10863789 0.12105854 -0.08939915 -0.09481646
000280 a8 4d 5c be 45 05 20 be b4 95 d6 be f3 5d b4 be
       -0.21513999 -0.1562701 -0.4191109 -0.35227928
000290 ac 16 b7 3d 8d c4 0c bd 78 8f 3a bf 5c 85 30 be
       0.08939871 -0.034367133 -0.72875166 -0.17238373
0002a0 ec dc d1 3d b8 40 36 bf f8 5e 8a be 2e 4f 13 bd
       0.10247216 -0.711925 -0.2702558 -0.035964184
0002b0 d1 01 a2 bd 8e 49 9c 3c 40 bc 83 3d 5c 44 21 be
       -0.07910503 0.019078042 0.0643239 -0.15748733
0002c0 75 49 27 be 85 87 fe be 85 00 07 3c 48 3e 04 bf
       -0.16336615 -0.49712768 0.00823987 -0.51657534
0002d0 99 b5 bf 3d a3 11 8c 3c a1 0e 3d 3f 69 44 3a 3e
       0.09360809 0.017098254 0.73850447 0.18190159
0002e0 d6 33 ae bc 58 60 17 bd ff f3 2c bd 38 7f 15 3d
       -0.021264952 -0.036957115 -0.04222488 0.03649828
0002f0 8f c5 23 3e b3 37 c2 bd 21 b3 97 3e c4 c8 f2 3d
       0.15993331 -0.0948328 0.29628852 0.11854699
000300 24 6f bc be 44 2a 89 3d 40 e9 d0 be e5 ef ef bc
       -0.36803544 0.06697515 -0.40802956 -0.029289195
000310 ca e0 de bb ad 66 d5 3d 49 d9 ae bd 44 d8 4c bd
       -0.0068016993 0.104199745 -0.085375376 -0.050010934
000320 fe b7 44 3a 5b cf 87 3d e2 98 e7 3d 9d 45 00 be
       0.00075042236 0.06631347 0.11308457 -0.12526555
000330 f4 cb 67 3d a0 81 bc bc b7 cf 82 3d 21 3d f4 3d
       0.05659099 -0.023011029 0.06387275 0.11925722
000340 24 91 d6 3e 1a cc e8 3b e2 97 31 be e3 6e 2d 3e
       0.41907609 0.007104409 -0.17343095 0.16936831
000350 e9 d2 ec 3d 86 38 75 3d 87 ae 86 3e 55 b2 10 3e
       0.115636654 0.059868358 0.2630503 0.14130528
000360 9a 08 88 be e9 86 81 3d 7e 4a ac bd fc 2c 09 bf
       -0.26569062 0.0632456 -0.08412646 -0.53584266
000370 39 6d ad 3d b9 93 97 bd 53 26 09 bf 77 cd bc 3e
       0.08468098 -0.07401223 -0.53574103 0.36875507
000380 c9 7e 13 bd ac c3 ab be 39 db 74 bf 77 75 19 bf
       -0.036009584 -0.33547723 -0.9564701 -0.5994486
000390 b7 eb b0 bb d0 4e 4c 3e 12 b3 c1 bc 67 3c 86 3d
       -0.005399193 0.1995194 -0.023644958 0.065544896
0003a0 f8 fd 5f be 84 c7 33 be 62 ee 30 3e e4 b7 87 3e
       -0.21874225 -0.17556578 0.17278436 0.26507485
0003b0 31 c4 6b 3e 3e 96 88 be 61 ea fb 3d 57 70 09 3e
       0.2302406 -0.26677126 0.123005636 0.1342176
0003c0 eb 10 c7 be 63 19 f9 be 32 b8 47 bd 77 92 0c be
       -0.38880095 -0.4865218 -0.048759647 -0.13727747
0003d0 a7 f1 dd 3c 16 73 71 be c6 85 66 3e 9f 20 18 bf
       0.027092768 -0.23579058 0.22511968 -0.59424776
0003e0 b4 1d ae 3d 7c fa e2 bd 2d 37 cd 3d 2d 13 de bd
       0.08501759 -0.11082932 0.100202896 -0.10843501
0003f0 da 93 cd 3c ca bc b0 3d ea 97 d1 bd 7a bb 2e bd
       0.025094915 0.08629759 -0.102340534 -0.04265926

fc1.bias f4 [64]
000000 ba ca 0e 3e f4 e3 7f 3d 41 0c 8a be ef 3f ad bd
       0.13944522 0.062473252 -0.26962474 -0.0845946
000010 cc c2 06 3e 7d 25 e0 bc 75 db 78 bd 66 d2 1c be
       0.13160247 -0.027361626 -0.060756166 -0.15314636
000020 61 92 0e 3d 70 bb cc bd dd c3 b3 3d 7f cd ab 3e
       0.034807567 -0.09996688 0.08777592 0.3355522
000030 b9 0c b6 3e 18 76 59 3d 11 88 35 be 64 54 4c be
       0.35556582 0.05309114 -0.17727686 -0.19954067
000040 d8 cd b3 3d e8 93 09 3d 0b 22 e7 bc f1 e5 91 bd
       0.08779496 0.03358832 -0.028214475 -0.07123936
000050 78 a4 5c bd 58 e1 7c 3d 37 a7 55 bd 30 09 01 be
       -0.053867787 0.061738342 -0.05216142 -0.12601161
000060 da 60 da bd f9 20 6e 3d c1 1f 4f bd 37 79 8a be
       -0.10663004 0.058136914 -0.050567392 -0.27045605
000070 e8 28 e8 3d ae bf bc 3d b3 6d bc bd f0 8d ab be
       0.11335927 0.092162475 -0.09200611 -0.33506727
000080 50 5b 14 b8 b3 5d 43 3b 82 4d 7a be 0a b9 84 3b
       -3.537099e-05 0.0029810488 -0.2444363 0.0040503787
000090 4e 66 b0 bd 95 83 90 3d 74 49 29 bc 43 83 85 be
       -0.08613263 0.07056347 -0.010332454 -0.26076707
0000a0 cb d7 79 bd be 3f 45 3e 10 f6 42 be 65 3a 52 bd
       -0.06099681 0.19262597 -0.19039178 -0.05132522
0000b0 90 6b 6c 3b 8a 85 12 be a5 78 2d bc 3d 23 b4 bd
       0.0036074854 -0.14308754 -0.010587846 -0.08795784
0000c0 63 d5 72 bd 0c 98 c1 bd 5d af 12 be b7 00 bb 3d
       -0.059285533 -0.09452829 -0.14324708 0.09130996
0000d0 01 76 75 be ab 04 fa bd d3 8b 73 be d2 08 9a bd
       -0.23970796 -0.122079216 -0.23783807 -0.075212136
0000e0 b4 e0 e9 3d 73 47 59 be 67 4d db bc d6 e3 36 bd
       0.11419812 -0.21218662 -0.026770307 -0.044650875
0000f0 75 73 23 bc 9b 87 70 3d df fe de 3c 42 56 96 bc
       -0.009976258 0.058723073 0.027221141 -0.018351678

fc2.weight f4 [64, 64]
000000 6a 03 44 bd d9 0a 42 be 95 04 02 bd 35 e4 61 3c
       -0.04785482 -0.1894945 -0.03174265 0.013787319
000010 dc 27 ae 3d 57 6e 33 3d b2 ae e9 bd 69 ed 11 bd
       0.08503696 0.0438064 -0.114102736 -0.035626803
000020 2a 58 a6 3d 43 28 0a bf f8 52 7d bd 5c 4f d9 bb
       0.08122285 -0.53967685 -0.061846703 -0.006631775
000030 0e ea 7f 3c 79 54 52 3b 60 70 43 3d 8a 85 f2 3e
       0.015619768 0.0032093807 0.04771459 0.47367507
000040 3a 9d 16 be 12 04 88 bc cf 50 52 bd 7a 9b 92 3d
       -0.14708415 -0.016603503 -0.051346596 0.07158561
000050 ef 9a 01 3e f1 c2 8b 3d f5 dd c8 3c 72 38 2b 3e
       0.12656759 0.068242915 0.0245199 0.16720751
000060 a6 13 df bd e7 1d 24 3e 78 2b 03 be cf 24 42 3d
       -0.108924195 0.16027032 -0.12809551 0.047398385
000070 c6 4a ab bd 85 06 c6 3e b7 df af 3e cf 1c 22 3e
       -0.08363871 0.3867685 0.34350368 0.15831302
000080 6c 83 af 3d ca da ca bd 44 19 15 3d 07 21 1f 3d
       0.085699886 -0.09905012 0.03640105 0.038849857
000090 57 8e 21 be 7b d7 1f 3f 87 65 28 3e 8d b9 6b be
       -0.15776955 0.6243817 0.1644498 -0.23020001
0000a0 7b b6 5a be b3 47 57 3e 8d 98 ae 3d 55 22 3a 3e
       -0.21358673 0.21023445 0.085251905 0.18177159
0000b0 6b 4b 08 3b 2d 5c dd bc 7b 79 81 3c 8a c6 f9 be
       0.0020796906 -0.027021492 0.015804997 -0.48784286
0000c0 07 f5 04 3f f1 30 5c bd 47 6e 21 be d7 e6 de be
       0.5193638 -0.05375761 -0.15764724 -0.43535492
0000d0 2b 84 0d 3d 6a d2 2d be b2 21 37 be 1a 22 fc 3c
       0.034549873 -0.16974798 -0.17883947 0.03077798
0000e0 6a 44 9f 3e a5 d7 50 bb 9d 8c 09 bf 7b 91 03 bd
       0.31106883 -0.0031866815 -0.53730184 -0.032121163
0000f0 c3 3a 7a bd e6 22 c0 be 76 a3 0d be 1f 18 77 3d
       -0.061091196 -0.37526625 -0.13831887 0.060325738
000100 79 68 e2 bb 42 e4 66 3e 40 c1 56 be 7a 0b 03 bd
       -0.006909427 0.22548011 -0.20972157 -0.031993367
000110 4a 6f 3b 3e 5b d2 44 bd c4 02 b7 bd 29 2a aa 3d
       0.18304172 -0.048052173 -0.089360744 0.08308823
000120 7f e7 36 3c 70 02 d3 bc f9 cd 59 be 18 fb 59 3e
       0.011163591 -0.025757998 -0.21269979 0.21287191
000130 16 65 be be 9a 71 80 bd ba 59 d9 bd fd 31 18 bf
       -0.37186497 -0.06271668 -0.10612817 -0.59451276
000140 cc df 5a 3d e0 0c fc be 37 93 41 be df 6e 60 3d
       0.053436086 -0.49228573 -0.18903814 0.054793235
000150 84 88 83 3e 9b b6 bb be 5e 23 fa 3d 07 6b 8c be
       0.2569009 -0.36662754 0.12213777 -0.27425405
000160 13 6d 67 be b5 f5 8d 3e d9 26 90 bd ce df 51 be
       -0.22600202 0.27726522 -0.070386596 -0.20495531
000170 1f ee 0f 3e 1e c5 15 bd a0 cf 5b be 1a f5 01 3e
       0.1405568 -0.03656494 -0.21465921 0.12691155
000180 99 9a ac bd ce 3d ce bd f3 8c bc 3d 33 0c 94 3e
       -0.08427925 -0.10070382 0.092065714 0.28915557
000190 00 8b 01 3e d6 d5 a7 be 5f e9 9e bd 1d c2 ed bd
       0.1265068 -0.3278033 -0.07759356 -0.1160929
0001a0 e8 c7 84 be e3 d1 13 3d e0 ce 80 3e 43 e9 d5 bd
       -0.25933766 0.036088835 0.25157833 -0.10444882
0001b0 07 e3 d2 3d cc 3d 78 be 06 3a 32 bd ed cb 99 3b
       0.10297208 -0.24242324 -0.043512367 0.0046934993
0001c0 06 8f c1 bd a7 64 76 3e 0c 6d 43 be 9e d7 3d 3e
       -0.09451108 0.24061833 -0.19084567 0.18539283
0001d0 9b 24 ee bd 4f 40 27 3e 6f 1e 9d 3e 28 8c 08 be
       -0.11628076 0.16333126 0.3068728 -0.13334715
0001e0 74 9f b9 be 8c 05 82 bc 54 aa 02 3e 8e 23 80 3d
       -0.36254466 -0.015871786 0.12760288 0.062567815
0001f0 1f 4f c3 bd 46 43 94 3e 92 bc bf be 6d bb f8 bd
       -0.095365755 0.28957576 -0.37448555 -0.12145124
000200 9a 3b 21 3d c2 ef fa bc 90 fa e7 3d 5c 29 f9 bd
       0.03936348 -0.030631904 0.11327088 -0.12166092
000210 83 7a 55 3d 8e 95 1d 3d ab 6c 86 be a0 12 07 be
       0.05211879 0.038472705 -0.26254782 -0.13190699
000220 be 05 bb 3d 62 17 d4 bd 80 aa 2e 3e 9f 64 9e 3d
       0.091319546 -0.103560224 0.17057228 0.07734036
000230 83 c4 98 3d 1f 40 0b 3e 10 d1 19 be 00 85 80 be
       0.07459357 0.13598679 -0.15021157 -0.2510147
000240 82 cb 9c be 5d 06 8f 3e 4c 29 8d bd 13 aa 77 3e
       -0.30624014 0.27934542 -0.068926424 0.24185972
000250 6c 55 d3 bd 80 ff 77 3e 32 7a 12 be b3 95 c8 3d
       -0.10319027 0.2421856 -0.14304426 0.09794178
000260 fb 10 13 bd ed fb 4f 3e e1 8e 02 bf 5b c6 18 3e
       -0.035904866 0.20310946 -0.50999266 0.14919417
000270 bf d4 5d be 4b ad 54 3e 1d c8 ac 3e 7f 79 35 be
       -0.21663187 0.20769231 0.33746424 -0.17722128
000280 ab 26 94 be db 2a 41 bd cd cc 02 be a8 9a 06 be
       -0.2893575 -0.04716001 -0.12773438 -0.13144934
000290 ca 20 dd 3d 83 5b 8c 3e 93 3c 64 3d db d5 c0 3b
       0.1079727 0.27413568 0.05572183 0.0058848686
0002a0 99 57 d0 3d 59 17 90 be 55 f9 2e 3b 86 49 cb 3c
       0.10172958 -0.28142813 0.0026698906 0.024815332
0002b0 f7 b4 9f bd 8c 36 5a be 96 13 02 3b 7b ec 0d bd
       -0.07798188 -0.2130987 0.00198481 -0.034649353
0002c0 93 7a 2b 3e a5 2a 7f be 27 49 3a be 8b e5 37 3e
       0.16745977 -0.24918611 -0.18191968 0.17958657
0002d0 92 5f 4c be f0 7b c5 bb 2f 63 fd bc 6c 18 17 be
       -0.19958332 -0.0060267374 -0.030931083 -0.1475541
0002e0 5a 70 89 3e f7 ff f8 3b 89 7f cc 3d cf c0 de be
       0.2684353 0.0075988728 0.09985263 -0.43506476
0002f0 a3 7c 3b be e7 25 83 3d 90 32 64 bc b2 68 08 be
       -0.18309264 0.06403714 -0.013928071 -0.13321188
000300 ad fd b6 3c 94 97 7d 3d 9d 43 ab bd eb b0 13 3e
       0.022337759 0.061912134 -0.083625056 0.14422958
000310 dd d8 f6 bd f0 71 f0 3d 05 00 f4 be cc 19 2d 3e
       -0.12053082 0.11740482 -0.47656265 0.16904372
000320 8e 64 19 be 71 cc c7 be 25 9b b5 be 16 f4 02 3e
       -0.14979765 -0.39023164 -0.35469928 0.12788424
000330 88 58 98 be 14 b4 f9 be e5 58 25 be d1 b8 db 3b
       -0.29755044 -0.487702 -0.16147192 0.0067053814
000340 50 aa ea bd 1b dd 44 bf 58 cf de 3e 9f a5 26 bf
       -0.11458266 -0.7689988 0.43517566 -0.6509647
000350 9d 48 9d 3d 94 89 22 3f 88 30 2a 3c ea 59 c2 bd
       0.076798655 0.6349118 0.010387547 -0.09489806
000360 09 8d 6e 3d b3 6c 57 bd 99 5e ad 3e 9f 95 aa 3e
       0.05823997 -0.052593898 0.33861235 0.33317277
000370 24 21 86 be 56 4e 0f bf a7 32 6e 3e 1a f0 f3 be
       -0.2619716 -0.55978906 0.2326151 -0.4764412
000380 9c 56 01 3e ad 84 f6 bd a4 48 2c bf ce 6b 2f be
       0.12630695 -0.12037025 -0.6729834 -0.17130968
000390 28 21 be bd 39 09 5b be c0 58 e2 bd 43 4b b8 be
       -0.09283668 -0.21390237 -0.11052084 -0.3599492
0003a0 cd 5e 4b be 8c f0 15 3e c1 88 3d be a3 71 df bd
       -0.19860382 0.14642543 -0.18509199 -0.10910346
0003b0 32 82 64 be 0b 9d 3b 3e 6b 1b d3 3d 9a ec bb be
       -0.2231529 0.18321626 0.10307964 -0.3670395
0003c0 7f 41 b9 bd e9 d8 f4 bd 6b e3 91 bd f3 43 9f be
       -0.090456955 -0.11955435 -0.07123455 -0.3110653
0003d0 08 08 7e be 3a 92 89 be 72 02 b2 be 9b be 6b 3d
       -0.24807751 -0.26869375 -0.3476749 0.057554822
0003e0 19 d5 2e be f3 84 fe be 3f 22 c6 be d1 ce 8c 3e
       -0.17073478 -0.49710807 -0.38698003 0.27501538
0003f0 b4 8f 12 be db bb c3 be 80 96 a5 bd c2 04 88 3e
       -0.14312631 -0.3822926 -0.08085346 0.2656613

fc2.bias f4 [64]
000000 09 19 06 3e 23 f4 54 3d b5 0f ac 3e 1a ac 74 bd
       0.13095488 0.05199064 0.33605734 -0.05973444
000010 4b f8 17 3d 7e 46 87 3d 0a 57 02 3e ea a6 50 be
       0.037102025 0.06605242 0.12728515 -0.20376173
000020 69 bd 4b 3e 25 59 60 3f cf 36 32 be 9c 64 eb 3e
       0.19896473 0.87636024 -0.1740372 0.45975196
000030 aa 60 3e 3f 73 87 03 be 32 88 e7 bd 86 83 1c be
       0.7436625 -0.12844639 -0.11305274 -0.15284547
000040 3a a4 d6 ba 1d d7 8a be 5a fa f4 bd 1a aa 6b 3e
       -0.0016375848 -0.27117243 -0.11961813 0.23014107
000050 92 b2 0e 3f a9 90 74 3f 76 96 6d be 56 1a ae 3d
       0.55741227 0.95533234 -0.23201928 0.08501117
000060 a0 c8 83 bc 3f eb 53 be 8f 09 20 be 27 90 f2 bd
       -0.016086876 -0.20695208 -0.15628646 -0.11843901
000070 9a 6e be bd 68 c4 2b 3f 70 2a f1 bc 04 b6 79 bd
       -0.09298439 0.6709657 -0.029439181 -0.0609646
000080 5a a3 b2 bd 10 04 16 3f 22 03 e8 3c a3 7a 70 3d
       -0.08722563 0.5859995 0.028321806 0.058710705
000090 1b 9c ee bc 93 72 d6 be 0b db 96 3c 55 f7 cf bd
       -0.029127171 -0.41884288 0.018414995 -0.10154597
0000a0 34 b3 11 be d5 7b 5b 3f 92 2b 3d 3f 59 60 85 3c
       -0.14228517 0.8573583 0.7389461 0.016281294
0000b0 c6 d3 90 3e 56 e4 1a be 80 e4 b7 3e 5f 9e 23 be
       0.2828657 -0.15126166 0.3591652 -0.15978383
0000c0 66 cf 55 3e 10 3c 2b 3d 06 ff 85 be 32 7b 31 3f
       0.20879897 0.041805327 -0.2617113 0.69328606
0000d0 63 24 eb 3d 09 28 ae bd 87 d8 fe bd be 24 b7 be
       0.114815496 -0.0850373 -0.12443643 -0.3577022
0000e0 64 90 1b be d9 6e a2 be 3e d6 19 3e 41 fa ab 3d
       -0.151918 -0.31725195 0.15023133 0.083973415
0000f0 1b 3b 05 be 81 b3 4f 3d 61 ad b3 3c ee 94 17 be
       -0.13010828 0.050708298 0.02193326 -0.14802906

fc3.weight f4 [4, 64]
000000 b9 a2 dc 3e d4 d9 19 3e 6f 25 ce 3d bd 0f ad bc
       0.43092898 0.15024501 0.10065734 -0.021125669
000010 0c b9 c6 3d a3 da fd 3d 7f 9f a2 3e 7a 70 4d be
       0.09703264 0.12395217 0.3176231 -0.20062438
000020 0f 84 70 3e d9 05 84 3e a9 c3 80 be 17 a9 ee 3d
       0.23487876 0.2578571 -0.25149277 0.11653345
000030 45 e8 8a 3e 41 69 47 be b8 a8 c2 bc 20 49 7a 3c
       0.27130333 -0.19473745 -0.023762092 0.015276223
000040 ab 09 8f 3d 98 43 57 be c0 f6 9c 3e 0c a5 82 3e
       0.06984266 -0.21021879 0.30657005 0.25516546
000050 ae 32 92 3e 7a 2b a5 3e 8d 0c 8c be d6 03 f8 3e
       0.2855429 0.32259732 -0.27353325 0.48440427
000060 b8 1d 47 be d8 d1 2e be eb 8c 95 be 32 cb 84 be
       -0.1944493 -0.17072237 -0.29209074 -0.25936276
000070 32 33 54 3e 00 aa 53 3e 39 e8 e8 bd d1 b7 e6 be
       0.20722654 0.20670319 -0.11372418 -0.45062116
000080 d9 94 48 3e 2d b7 67 3e 98 b0 0f 3f cf 75 b4 3e
       0.19588031 0.2262847 0.56128836 0.3524613
000090 93 1a f1 bd 56 93 56 be 2a 98 ad be ae 7f 6a 3d
       -0.11772647 -0.20954642 -0.33905154 0.05725067
0000a0 26 96 07 bd 10 0c 66 3e 53 17 17 3e 4f b4 ff 3d
       -0.033102177 0.22465539 0.14754991 0.12485563
0000b0 c8 35 df 3d 65 99 64 be 64 d0 34 3e 16 c7 24 3e
       0.1089893 -0.2232414 0.1765762 0.1609157
0000c0 84 88 8d 3d 45 4a 47 3d bc 48 39 be 3a 3f 8a 3e
       0.06910804 0.048654813 -0.18094152 0.27001363
0000d0 02 bf a6 3d 6e 4e 85 bf f6 a7 5f bd b3 2d 34 be
       0.081419006 -1.041456 -0.05460354 -0.17595558
0000e0 05 a3 bd be 25 85 2d 3e 52 cb 6f 3e aa 9b 40 3e
       -0.37038437 0.16945322 0.23417404 0.18809381
0000f0 e3 1f 20 bf 7b b4 b4 3e 7e 59 48 bd 46 a6 c5 bd
       -0.62548655 0.35293946 -0.04891347 -0.09650855
000100 8b 8f be 3e 8c 05 0c 3e 18 c5 2f 3e 2f 69 a7 3c
       0.3721889 0.13673991 0.17165029 0.020435898
000110 8f 85 e7 bd 35 dd 12 bd 47 7f a2 3e ec ea 3f 3d
       -0.11304771 -0.03585549 0.3173773 0.0468549
000120 38 d1 86 3e 53 a4 81 3e d0 a3 b6 bd 2b 99 4a 3e
       0.26331496 0.25320682 -0.089179635 0.19784991
000130 47 20 a4 3e de bd ef bc 58 4c d2 bb 93 7d 1d bc
       0.32055876 -0.02926534 -0.0064177923 -0.009612459
000140 bb c9 b9 3e 16 c0 4e 3c 29 62 ea be 41 c4 0d 3e
       0.3628672 0.012619039 -0.45778015 0.13844396
000150 c8 a1 7a 3e 6a 1f b4 3e 5c d2 09 be 2b be f7 3e
       0.24475777 0.35180217 -0.13459152 0.48387274
000160 6e 1d 21 3e b9 77 96 bd b4 0c 95 be 79 20 63 bd
       0.15733883 -0.07347054 -0.29111254 -0.05545089
000170 49 d6 c3 be 09 1d 31 3e 30 89 4c 3e 6f cc af bd
       -0.38249424 0.17296232 0.19974208 -0.085839145
000180 28 8b 64 bd 8e 7b 24 3e 9e 0c 0d 3e 56 5e 87 3d
       -0.055796772 0.16062757 0.13774344 0.0660979
000190 7e fc 3c 3e b3 3c 55 be 16 74 e6 3d b4 73 54 3e
       0.18455693 -0.20823936 0.112526104 0.20747262
0001a0 42 ff e7 bd bc 86 4d 3e b6 bf 78 3e 66 01 cb bd
       -0.113279834 0.20070928 0.24291882 -0.09912376
0001b0 53 c2 6a 3e 5b ce 07 be ca a1 aa 3d ab eb e3 bd
       0.22925691 -0.13262312 0.0833164 -0.111289345
0001c0 8f 22 9f 3d b7 8b 1c 3e cd 81 c9 bd 5c ed a4 3e
       0.077702634 0.15287672 -0.09839211 0.3221234
0001d0 7b 8b 88 3e 0d 93 2b 3e 6b 12 0d 3d a4 90 36 bd
       0.26668915 0.16755314 0.034441393 -0.044571534
0001e0 76 c3 b9 bc ad 7c 45 be 41 b6 7e 3c 84 5b 30 3e
       -0.02267621 -0.19285841 0.015546382 0.1722241
0001f0 05 6e 3c 3e a2 12 0f 3f a4 4b 93 3d 4e 63 1a be
       0.18401344 0.55887806 0.07192162 -0.15076944
000200 c4 6e 32 3e 98 2f d0 3e 15 b2 37 3e 1d 7e ac 3e
       0.17425066 0.4066131 0.17939027 0.33689967
000210 50 d7 f7 3d 7d a8 b1 be 33 e4 1c 3e 58 50 ea bd
       0.121016145 -0.3469886 0.15321426 -0.114411056
000220 13 0d f6 3d 3d fd 47 3e 1a a3 de bd a9 dd 3d 3e
       0.120142125 0.19530196 -0.10870953 0.18541588
000230 84 c8 ad 3e 74 bc 9b 3c a7 b8 a3 bd 14 57 a0 3e
       0.33942044 0.01901076 -0.07994204 0.31316435
000240 00 cd 08 3f 9e d5 82 3e 1e 09 03 3f ef 1b 76 bc
       0.53437805 0.25553602 0.51185787 -0.015021308
000250 d7 3d 2b 3e bc 08 9b 3e f2 44 85 bd 25 47 64 3e
       0.16722809 0.302801 -0.06507291 0.22292764
000260 53 b1 54 3e 5f 30 af be d6 e3 ad bd 78 32 08 be
       0.20770769 -0.34216592 -0.08490722 -0.13300502
000270 ad 52 8f be c1 22 ab 3e 3b 5f 07 bd 23 04 85 be
       -0.27992764 0.33424953 -0.033049803 -0.2597972
000280 7a c1 31 bf 99 9c 99 3d 10 51 f0 3e a4 46 95 3e
       -0.69435847 0.07500572 0.46936846 0.29155457
000290 b0 e6 c2 be 42 c7 67 be b4 e3 ea bd aa 9f ef be
       -0.38066626 -0.22634605 -0.11469212 -0.46801502
0002a0 e5 9a 8e be 5b 9c 97 3e a1 3e 85 3e dc 19 80 3e
       -0.2785255 0.29611477 0.26024345 0.2501973
0002b0 65 45 b1 3d 39 f8 15 be 0f 16 18 3e 31 b1 0d 3f
       0.08655814 -0.1464547 0.14852165 0.553485
0002c0 c9 80 84 3e ce 28 50 3e a0 ee 4b be 47 c4 87 3e
       0.25879505 0.20328066 -0.19915247 0.26516935
0002d0 a1 f6 30 3e 39 90 c4 3d 0c 9c 16 3e 40 db 88 3d
       0.17281581 0.09597821 0.14707965 0.066824436
0002e0 20 26 27 be e0 b0 4b be f0 62 2f 3e 99 68 fd be
       -0.16323137 -0.19891691 0.17127585 -0.49493864
0002f0 f5 00 0e bf 94 6a f4 3e 98 b7 5c be df 84 8f be
       -0.5547021 0.47737563 -0.2155441 -0.2803106
000300 74 11 60 3e 94 fd 72 3e cb f2 88 3e 58 8c 96 be
       0.21881658 0.23729545 0.26747736 -0.2940395
000310 72 ab 9d 3e 7f f9 e0 3e 01 83 be 3c c9 0c bf bd
       0.30794865 0.4394035 0.023255827 -0.093286105
000320 bd 1d e7 3e ca 3c 9d 3e 19 5e d1 3d e7 3e ea 3d
       0.45139876 0.3071044 0.10223026 0.11437779
000330 f0 db a8 3e 48 fe 63 be c3 ef 9d 3c ab 62 fb 3d
       0.329803 -0.2226497 0.019279366 0.12274679
000340 73 73 50 3e 90 1b 49 bd 9c 09 f2 bd 04 57 35 3d
       0.2035654 -0.04909855 -0.11818239 0.044272438
000350 54 d1 69 3e ab 39 98 3e d0 b3 b3 be b9 78 9e 3e
       0.22833759 0.29731497 -0.35098124 0.3095148
000360 05 f0 86 3e e4 59 98 be 45 c7 ae be ad ba 94 3e
       0.26354995 -0.2975608 -0.34136406 0.29048672
000370 ec ac eb 3e 17 80 48 3d 02 d7 f3 be 25 7f 8b 3e
       0.46030366 0.04895028 -0.47624975 0.2724544
000380 f1 c7 ac 3e 2c 64 17 3e b5 8a 3e 3e 3c b3 be be
       0.33746293 0.14784306 0.186076 -0.3724612
000390 04 b2 8b bd d0 85 23 be dd 1f 44 3e d6 40 b1 3e
       -0.06821063 -0.15969014 0.1915278 0.34619778
0003a0 7f 3d 04 bf e5 0c 9e 3e 47 99 92 3e c5 a4 6f 3e
       -0.51656336 0.30869213 0.28632566 0.23402698
0003b0 73 e6 4c 3e 9d 25 a7 be b2 c3 34 3d 91 32 99 be
       0.20009784 -0.32645884 0.044131942 -0.29921392
0003c0 65 fd 16 3e 38 52 ff 3d b0 ba 12 3e 6a 78 af 3e
       0.147451 0.12466854 0.14329028 0.34271556
0003d0 8d c5 ee 3d 83 54 37 3d ba c1 32 be b3 b1 8d 3e
       0.116587736 0.04475833 -0.17456713 0.27674636
0003e0 7e 50 d2 be db 21 df bd ba 03 8a be f1 bb 35 be
       -0.41077036 -0.10895129 -0.26955968 -0.17747475
0003f0 f1 18 02 be ba 63 86 3e ef a0 21 be be fc e1 bd
       -0.12704827 0.2624796 -0.15784048 -0.11034535

fc3.bias f4 [4]
000000 1a db 23 3f fe 8a ec 3e 37 b8 dc 3e 78 27 04 3f
       0.640062 0.46199793 0.43109295 0.51622725
