checkpoint.pth (torch_old, 28405 bytes, 6 tensors)

fc1.weight f4 [64, 37]
000000 8c bf 44 bd 42 85 4f 3d cb ab 67 bd bc a5 14 be
       -0.048034236 0.050664194 -0.05656032 -0.14516348
000010 76 d5 22 bd d5 09 8b 3d 0b da 96 3d ed f0 15 3e
       -0.039754353 0.06788985 0.07365807 0.14642687
000020 c5 8b 1c be 77 19 ea bc b1 98 a7 bd 0f 60 00 3e
       -0.15287693 -0.028576596 -0.081834204 0.12536643
000030 d1 cb be bd 4e 2b 5a be f8 61 e8 bd 2a 89 a2 3c
       -0.09316219 -0.21305582 -0.11346811 0.019840796
000040 30 ea 8f 3c 82 fa 3a 3d 55 a5 3a 3e 9b 26 52 3e
       0.017567724 0.04564906 0.18227132 0.2052254
000050 55 ad a0 3d fe a4 1e 3e 59 09 c8 3d d5 b1 dc 3d
       0.078455605 0.15492627 0.09767408 0.10776106
000060 a1 4f db bd 8e 7b 15 be 2b 0e 6f 3e 35 25 a6 3d
       -0.107085474 -0.14597914 0.23345248 0.081125654
000070 1c 98 59 bd cd 8c ba 3c 7d aa f5 3d 98 99 8b bc
       -0.05312358 0.022772217 0.11995409 -0.017041013
000080 6d 22 b3 bd 75 84 20 be 80 4e 92 bf 0e f1 2b bd
       -0.087468006 -0.15675528 -1.1430206 -0.041977935
000090 71 56 51 bc ba 73 86 bc 1c 98 08 3e b3 99 b0 3d
       -0.012776957 -0.016412605 0.13339275 0.08623066
0000a0 14 6f 4a 3e c5 e7 a9 b8 cd 97 28 3d 4c fd a2 be
       0.19768935 -8.1017184e-05 0.041160394 -0.31833875
0000b0 5d 4d 6c bb c2 ed b3 bd ce 6c 8e 3c 1a 5e 38 3d
       -0.0036056854 -0.08785583 0.017385866 0.045011617
0000c0 55 92 8c bd 95 f9 f5 3c eb c1 87 3e 24 97 31 3e
       -0.06863848 0.030026237 0.26515135 0.17342812
0000d0 ba cb 83 3d a5 79 13 be 7e 6a 11 3e 64 8c 6e 3d
       0.06435342 -0.14401872 0.1420078 0.058239356
0000e0 09 e9 26 bd af ef 07 bd 74 63 80 bc 71 fe 5a be
       -0.040749583 -0.033187564 -0.015672423 -0.21386124
0000f0 f4 b7 d7 3c e5 c5 6d 3d 03 a3 3b bd 2e 5f b5 bc
       0.026332833 0.058050055 -0.045809757 -0.022140112
000100 79 21 ea 3b d6 12 90 3c 1e 72 e2 bd ad 1f 81 3d
       0.0071451035 0.017587107 -0.110569224 0.0630487
000110 8f 22 95 3e e5 c6 ad 3d c1 1e 02 be af a9 15 be
       0.2912793 0.08485202 -0.12707044 -0.1461551
000120 d3 20 36 3d d8 37 82 3c 58 c7 9e bd 10 bc 27 3e
       0.044464897 0.015895769 -0.077528656 0.16380334
000130 a6 4e 57 3e 8b 13 5c 3d a6 0b 69 be aa 2f 9f be
       0.21026096 0.053729575 -0.2275835 -0.31091052
000140 93 48 1e 3d 09 76 58 3e 81 7c 55 3e fe ae 03 be
       0.03864343 0.21138777 0.20848276 -0.12859723
000150 8d c9 2b 3e da eb 78 bc 05 3b 23 be 6f 55 3f bd
       0.16776104 -0.01519295 -0.15940483 -0.046712335
000160 e1 86 c1 be 0d 50 2d be c7 a9 0f 3d 62 ae 84 3e
       -0.37798217 -0.16925068 0.03507402 0.25914294
000170 b2 47 27 3e 62 8e bf bc 03 f5 57 be f5 24 6c 3d
       0.16335943 -0.023383323 -0.21089558 0.057652432
000180 7e f6 aa 3d 72 df 88 3b 5b e4 ed 3d 29 2f 6e be
       0.08347796 0.0041770274 0.11615821 -0.23260178
000190 6a 9c 6c 3e 76 5b 0e 3e 78 ba d0 3b 53 7f c3 bd
       0.23106542 0.13902077 0.006369885 -0.095457695
0001a0 c9 76 64 be a2 92 04 3e 2f d2 11 3d 4a bf 73 be
       -0.22310938 0.12946561 0.035600837 -0.2380344
0001b0 cd 46 f2 bc 6c 61 00 3d a2 f1 81 bc 29 23 aa bd
       -0.029574776 0.03134291 -0.01586229 -0.083074875
0001c0 13 23 7f 3e 96 8d 10 3e cb 58 a5 bd 2d b0 17 bf
       0.24915724 0.14116511 -0.080735765 -0.592532
0001d0 37 f9 4b be 7a 71 17 3e cb 4c 11 3e e3 f7 e7 3d
       -0.19919287 0.14789382 0.1418945 0.113265775
0001e0 23 04 82 be 9e 84 3f bc cf ed cd bd f6 ea e8 b8
       -0.2539378 -0.011689333 -0.10055124 -0.00011106387
0001f0 d7 06 17 3e 9d cc e4 3d 91 a9 3c be ae e6 88 3d
       0.14748703 0.111718394 -0.1842406 0.06684624
000200 e9 dd 6f 3c 74 dc 01 be 1a 3b f5 be ca a2 95 3d
       0.01464031 -0.12681752 -0.47896653 0.0730644
000210 8b e1 76 bd 36 a6 f4 3b 02 40 a9 3d 7a 26 97 3c
       -0.06027369 0.007466103 0.08264162 0.018450964
000220 f0 c3 50 bd 90 de b7 3d c9 1e aa 3d ed 01 fc bc
       -0.05096811 0.08977997 0.08306653 -0.030762637
000230 92 79 1c be af 0e b1 3e 3c d1 e5 3d 66 52 07 be
       -0.1528075 0.34581515 0.11221549 -0.13215026
000240 c1 0b cf be 93 6d 1b bf 40 98 aa 3d c4 12 9f 3b
       -0.40438655 -0.6071407 0.08329821 0.004854532
000250 3d ee 00 3d 3f 1b c5 be d9 23 2a be bf b0 54 be
       0.0314772 -0.3849735 -0.16615237 -0.20770548
000260 52 0e 57 3c 2d 20 1d be e7 b7 9b 3e fc 6a a3 bd
       0.013125973 -0.15344305 0.30413744 -0.0797939
000270 de b3 9c bd 7e 6b 78 bd 8a fc 80 3d ef ea 73 bd
       -0.076514944 -0.060649388 0.06298168 -0.059550222
000280 8b a1 05 be 6e 84 c9 be d0 36 00 bf bd 7f bd bd
       -0.13049905 -0.39358848 -0.5008364 -0.0925288
000290 ad 63 ee bd b5 b9 03 be aa 71 b4 3c 91 71 37 3e
       -0.116401054 -0.1286381 0.022026855 0.17914416
0002a0 dc 37 16 be 23 e8 0f be 9e 23 ec 3d 74 b6 5f bd
       -0.14669746 -0.14053397 0.11530231 -0.05461736
0002b0 a3 08 82 be c2 a9 de 3c 22 bd 92 bb cf 9b c6 3d
       -0.25397214 0.027180556 -0.004478113 0.09697687
0002c0 59 70 99 be 45 5b 20 bd b0 59 86 3d 39 25 f0 bb
       -0.29968527 -0.03914954 0.06560075 -0.007328656
0002d0 14 c4 bd 3d e7 52 7f be 18 71 f4 bd 00 59 cf 3c
       0.092659146 -0.24933968 -0.119356334 0.025310993
0002e0 1e 37 e8 bb 3a 67 8c bd 95 e8 89 bd a7 fc 06 3d
       -0.0070866486 -0.068556264 -0.067338146 0.03295579
0002f0 6f 97 21 3e 04 a6 58 3e 3a e9 38 3e 2d ce 29 3e
       0.15780424 0.2115708 0.18057719 0.16582556
000300 73 94 b5 bc 3c b2 15 be 11 2b 81 be c0 c6 48 be
       -0.022165513 -0.14618772 -0.2522817 -0.19607067
000310 8c 52 f1 3b 8f fe 84 bc 5a 41 32 3d fd a1 8e bc
       0.0073645767 -0.016234664 0.043519355 -0.017411226
000320 bf 6b c1 bd b7 42 af 3d d0 47 3f 3c 01 37 36 bd
       -0.09444379 0.08557647 0.011674836 -0.04448605
000330 09 8f 26 3c e5 21 0a 3d 1b 24 b5 bd fe b7 33 3e
       0.010165938 0.03372373 -0.08844777 0.17550656
000340 f3 57 7d 3e 41 ff 93 3e 9a 5a 65 bd d3 70 a7 3d
       0.24740581 0.2890568 -0.055994608 0.081758164
000350 19 35 a0 bd 0c 69 e0 3d c1 fd a3 3d 6e 2e 64 3e
       -0.078226276 0.10957536 0.08007384 0.22283337
000360 78 8b b5 be 42 b1 0e be d8 8c 1f be 2b eb 9e bf
       -0.3545797 -0.13934806 -0.15581071 -1.2415518
000370 17 b0 9b 3c 21 3e 3c 3c 9a 3f 8d be 2c 0c d4 bd
       0.019004865 0.011489422 -0.27587587 -0.10353884
000380 a6 18 8c 3d ff 1e 06 3e a8 11 d9 bd ee 45 e6 bd
       0.06840639 0.13097762 -0.10599071 -0.11243807
000390 71 56 85 be e9 e3 3e 3c b0 f2 0a 3c 5e a7 06 3e
       -0.26042512 0.011651018 0.008480713 0.13149783
0003a0 fb 83 cc bb 8d a9 cf 3d 32 11 ae 3d 0e 11 04 be
       -0.0062413192 0.10139761 0.084993735 -0.12897131
0003b0 fb 33 c5 3e df 43 e9 bd 88 33 0c be 7d d7 56 bd
       0.3851622 -0.113898985 -0.13691533 -0.0524516
0003c0 5b 9d 15 3e 28 f5 04 3e 7f c2 67 be 2a 78 b0 bb
       0.14610808 0.12984145 -0.22632788 -0.0053854184
0003d0 33 80 0d 3e 2c 80 e6 bd 9e 2c a5 bb f8 38 85 be
       0.13818435 -0.112549156 -0.005040719 -0.26020026
0003e0 83 70 15 be d4 2b e4 bd e3 ae 0e 3e a7 ae 52 bd
       -0.14593701 -0.11141172 0.13933901 -0.051436093
0003f0 87 e5 03 be 4e ce 63 be 64 02 20 3d f7 f3 e3 3d
       -0.12880526 -0.22246668 0.03906478 0.11130517

fc1.bias f4 [64]
000000 96 a0 37 3e e5 9e 78 bc 18 3a fd bd c1 1c 2c bd
       0.17932352 -0.015174602 -0.12364596 -0.04201961
000010 f5 c2 08 3e f3 0f 91 bc 6f 7a 16 be 83 30 b5 3d
       0.1335562 -0.0177078 -0.14695142 0.088471435
000020 0b 6b 4b 3d aa 65 57 be 89 8c 03 3e da 05 41 3e
       0.04966263 -0.21034876 0.12846579 0.18849888
000030 9f c0 3b 3e b5 d1 2a 3e 9c 84 9d bc 1c 39 dd 3a
       0.18335198 0.1668156 -0.019228272 0.0016877982
000040 76 34 10 3d d8 64 62 3d 39 47 70 3d 6b 1b 80 be
       0.03520628 0.055271953 0.058661673 -0.25020918
000050 ae 24 0d be 1c 6a 86 3d b2 eb fd 3c 7d 92 95 bd
       -0.13783523 0.065632075 0.030996177 -0.07303331
000060 25 ec 75 bd ec fd 3e 3d 65 f7 b1 bc cb eb 29 be
       -0.060039658 0.046628878 -0.021724412 -0.16593854
000070 2e 29 f6 3d 1f 15 6f 3d 2a 2f 07 bd d8 7c 5d be
       0.12019573 0.058369752 -0.033003964 -0.21629655
000080 5c 41 97 3d 10 2e 80 3c c4 f4 c9 bd 4f a4 b4 3d
       0.07385513 0.015646964 -0.098611385 0.08820402
000090 33 be 95 bc 48 62 e0 3c c5 84 f6 bc fe 53 04 bd
       -0.01827917 0.027390614 -0.030092606 -0.032306664
0000a0 49 01 c8 bb f7 10 31 bd 72 1f 09 be 87 d4 0e 3e
       -0.006103669 -0.04322907 -0.13390902 0.1394826
0000b0 a7 24 8b 3d e6 a9 0e be 85 4a 22 3c 53 15 28 be
       0.067941 -0.13931999 0.009905462 -0.16414385
0000c0 e0 cd 10 be 5e 7b f3 3d a6 a6 23 be dd b6 e8 3c
       -0.14141035 0.11888765 -0.1598154 0.028407509
0000d0 08 63 b4 bc d2 2d 86 bd c4 90 56 be 0d 7d 25 bc
       -0.022019878 -0.06551708 -0.20953661 -0.010100615
0000e0 9d 24 d1 3d 71 fa 1e bd 26 17 a2 bd d3 47 d6 bd
       0.102120616 -0.03881306 -0.079145715 -0.10462918
0000f0 e2 6f a7 bc 1f 5d 8c 3b 86 93 96 3d 31 39 c9 3c
       -0.020439092 0.004283562 0.073523566 0.024563404

fc2.weight f4 [64, 64]
000000 65 b0 ab 3c b7 1f c3 3d da 55 2a 3e be 0b 3e 3e
       0.020958135 0.095275335 0.16634312 0.18559167
000010 1e 34 bd 3e df cd 84 bd 37 fe 36 be c4 78 87 3d
       0.36953825 -0.06484579 -0.17870413 0.06614831
000020 42 17 50 3e b6 26 11 bd ed c6 8a 3c 60 52 9f be
       0.20321372 -0.03543731 0.016940558 -0.31117535
000030 51 0e 75 be 2b 1d 02 3e 66 a8 6d be 0d 69 74 be
       -0.23931243 0.12706439 -0.2320877 -0.23868199
000040 23 b6 1f be 17 9e 93 be 88 7e 05 ba ca fd 20 3d
       -0.15596823 -0.2883155 -0.0005092402 0.039304532
000050 69 a9 4b 3b 58 71 08 be 03 95 08 be 55 0c 41 3e
       0.0031076318 -0.13324487 -0.13338093 0.1885236
000060 63 20 ff bd b5 e7 b8 bd 42 60 ec bc bf 38 42 3e
       -0.12457349 -0.090285696 -0.028854493 0.1896696
000070 6b 1b 9c 3d ab e6 52 3d f3 b1 97 3d ae 40 ab bd
       0.07622417 0.051489513 0.07406988 -0.08361946
000080 b1 bb 97 bd ee d7 d3 3e 9f a4 60 bb 2e 4e 22 3e
       -0.07408846 0.4137568 -0.003427781 0.15850136
000090 f5 1a 89 bd 7b 13 a9 be 9e 52 97 be f1 33 35 bd
       -0.06694595 -0.33022675 -0.2955522 -0.04423899
0000a0 5d 15 4a be af a0 4b be a3 9b 02 3e 76 5f d9 3e
       -0.19734712 -0.19885515 0.12754683 0.42455643
0000b0 7a aa d7 3d 94 8c 9e bd c9 d7 f9 bc ac 81 fa 3d
       0.10530563 -0.07741657 -0.030498402 0.12231764
0000c0 5e 77 0a be 02 d8 d6 be b6 3c 41 be 29 13 e0 bd
       -0.13522097 -0.41961676 -0.18870816 -0.109411545
0000d0 04 27 3f be 64 10 55 be 18 c0 8b 3a fa ec 67 3d
       -0.18667227 -0.20807034 0.0010662107 0.056622483
0000e0 51 5a 10 be 2e 39 03 be 9e 70 6b be f0 cd 30 be
       -0.14096953 -0.12814781 -0.22992179 -0.17266059
0000f0 e2 f7 cc bd b1 f8 7f 3e 34 40 69 be 26 1b a5 be
       -0.100082174 0.24997212 -0.22778398 -0.32247275
000100 0d c1 09 3e 3d 06 9d 3d de 8e 7d be 2d 7d 24 3e
       0.1345255 0.076672055 -0.24761531 0.16063376
000110 9c 4f 84 3d 71 39 14 3e 7d d4 5c bd 0f b3 14 3c
       0.06460497 0.14475037 -0.053913582 0.009075894
000120 81 85 32 3d b8 f8 bb bd f8 ab 64 be 89 d9 a2 3e
       0.04358435 -0.09178299 -0.22331226 0.3180659
000130 f2 51 3c bc a4 b2 e4 3d 5f d0 8e bd b1 f9 36 be
       -0.011494147 0.111668855 -0.069733374 -0.17868687
000140 16 5f c8 3d 18 ea 1a 3e be d8 99 3c 4e bd 70 bd
       0.09783761 0.15128362 0.018780109 -0.058774285
000150 e3 3d 78 3d a0 3c d6 bd 72 a8 99 3e 33 d6 32 bd
       0.060605895 -0.10460782 0.30011326 -0.043661308
000160 4e 65 ae bc 2c dd 9c bc 6a 7f 7b bd 4d 42 ea 3c
       -0.02128854 -0.019148432 -0.06140081 0.028596068
000170 dd 31 9b 3d aa 2f 61 3d 64 01 d8 3d 01 c9 a7 bd
       0.0757787 0.054977097 0.1054714 -0.08192635
000180 8c 5d c1 bd 9f 8a fb bd 77 ff 38 3c 3d 69 0e bd
       -0.09441671 -0.12282299 0.011291376 -0.03476833
000190 6f 21 2b be cb 44 ab 3e 7d 72 1f bc f9 64 91 bc
       -0.16711973 0.33450922 -0.009731886 -0.017748343
0001a0 ed 7b 3a 3d f8 03 39 bc 43 a9 d9 3c 62 3b f8 bd
       0.04552834 -0.01129245 0.026569968 -0.121207014
0001b0 26 80 af bd ff aa 21 bc b0 17 2f be 0d 0b 8d 3c
       -0.08569364 -0.009867429 -0.1709888 0.017217183
0001c0 a4 e3 66 bd e0 9d 28 be 01 99 6e bc f3 f2 db 3d
       -0.05636944 -0.16466475 -0.014562846 0.10739698
0001d0 e3 cf df bd e8 45 c7 3e 82 96 00 bc c7 35 10 bc
       -0.10928323 0.38920522 -0.007848384 -0.008801884
0001e0 26 cc c2 be 37 22 c0 bd 8b 1e 50 3e 4a 84 87 3a
       -0.38046378 -0.09381526 0.20324151 0.0010339108
0001f0 c7 dd b7 be 06 99 00 3d 09 2b 15 be e6 d1 3c bc
       -0.3591139 0.031395935 -0.14567198 -0.011524653
000200 42 57 1e be 26 d9 2e be e6 74 59 bd 2c c5 04 be
       -0.15462974 -0.17075023 -0.05309 -0.1296584
000210 60 8e 80 3d 98 f3 4a 3d 63 15 f7 bd 94 3c d7 bb
       0.06277156 0.049548715 -0.12064626 -0.006568501
000220 01 bd 2c bd 04 95 d4 3d 0b 4d 93 3e 0d fb 34 be
       -0.042172436 0.10379985 0.28769717 -0.17673893
000230 ef 9b 58 bd 90 7d de 3d 30 79 fe 3c 89 de 7f bd
       -0.052883085 0.10863793 0.031063646 -0.062468085
000240 1f 80 46 be f6 41 55 bd 8d 45 8d 3d 01 13 ed bd
       -0.19384812 -0.05206486 0.068980314 -0.1157589
000250 36 57 87 be 7e 31 53 3e 39 39 ff bb 99 ae 60 3d
       -0.26433724 0.20624349 -0.007788804 0.05485401
000260 ff 0a 0d be ec b4 ae 3e f8 2a 04 bd e8 93 e7 3c
       -0.13773726 0.34122407 -0.03226754 0.02826877
000270 49 76 46 be 16 4f 24 be 90 d4 8c bd de 4a f2 3d
       -0.1938106 -0.16045794 -0.068764806 0.11830686
000280 5f fb 8e be 6e cd cb be b6 88 03 be 8c 4a 47 be
       -0.27926156 -0.39805168 -0.1284512 -0.19462031
000290 6a 2d a9 3d 8f 29 d6 bd 3c 15 a7 3e 70 b7 c6 be
       0.08260615 -0.104571454 0.32633388 -0.38811827
0002a0 7a 17 41 3d 76 0d 4d be 6f ab b1 3d be 16 c8 be
       0.04714153 -0.20024666 0.086752765 -0.3907985
0002b0 aa 74 80 3d a6 7d 9b bd 0a f9 04 bd 88 1d 3a bc
       0.06272252 -0.07592325 -0.032464065 -0.01135958
0002c0 5c ff 5a be 53 04 84 be e3 01 62 be e1 50 a3 3d
       -0.21386474 -0.2578455 -0.22071032 0.07974411
0002d0 a6 f1 90 be d5 b4 0b bd 05 ac 75 be 62 a0 6b 3d
       -0.28309363 -0.034108 -0.23991401 0.057526
0002e0 1a a4 88 3d 45 85 e6 bd d6 eb dd 3c 4c a2 49 3e
       0.06671925 -0.11255888 0.027089994 0.19690818
0002f0 87 19 7b 3e d9 16 c7 be b2 ac a8 3e c6 a0 16 3c
       0.24521457 -0.3888462 0.32944256 0.009193605
000300 44 c2 e5 bd 68 58 07 be 97 c9 79 3d 88 9c 53 be
       -0.11218694 -0.13217318 0.060983267 -0.2066518
000310 f4 af 8d 3d e5 89 96 bc 8a 7f cf bd cb e4 63 3d
       0.06918326 -0.0183763 -0.10131748 0.055638116
000320 19 75 af bd ba f9 04 bd 60 48 d9 3e 2e 44 3a 3e
       -0.085672565 -0.03246472 0.4243803 0.18190071
000330 35 ef 4b be 2b 6a 3a 3e a3 65 8c bc 4c 56 f5 bd
       -0.19915469 0.18204562 -0.017138308 -0.119793504
000340 69 7c 2f be 34 4c cf be 7a 57 8d bd e4 33 8d be
       -0.17137302 -0.40487826 -0.069014505 -0.27578652
000350 fb 76 c8 3d 48 46 cb bd 2f fd 1f 3e 91 6e 29 3e
       0.09788319 -0.099255145 0.15623926 0.16546084
000360 48 b2 b1 bd c0 7d 6e 3d 96 8a c6 bc bb 10 0f 3d
       -0.086765826 0.058225393 -0.024236005 0.034928065
000370 e9 0f 07 3e dc 8e 41 be bb c1 69 bc b5 95 00 be
       0.13189663 -0.18902153 -0.01426738 -0.12557109
000380 a2 1f cc 3b 6b 99 be 3e 5d 4e ab 3d b9 f1 95 3e
       0.006229357 0.37226424 0.08364556 0.29285982
000390 41 81 03 be aa 40 73 be 9c 79 45 3e ca 82 82 bd
       -0.12842275 -0.23755136 0.19284672 -0.06372602
0003a0 24 01 74 be ac 5d 95 bb ad f2 8b bd e9 58 b5 3e
       -0.2382856 -0.0045582857 -0.06833396 0.35419396
0003b0 98 e9 21 3d 81 04 52 bd 69 cb da bc e9 8b 93 3d
       0.039529413 -0.051273827 -0.026708322 0.0720442
0003c0 bb 4b 01 3d 65 93 d2 bd a3 09 44 be 71 43 2e be
       0.031566363 -0.102820195 -0.19144301 -0.17017914
0003d0 36 35 2c 3d 03 0d 56 bd a3 0e e4 3c 42 3c b8 bc
       0.042042933 -0.052258503 0.02783901 -0.02248967
0003e0 47 85 a0 be 20 63 c4 bd 32 70 da bd 7d 38 bc 3c
       -0.31351683 -0.09589219 -0.10665931 0.022976154
0003f0 21 eb 80 3d ae e5 a6 bc db 4b ca bd 66 a4 2c 3e
       0.06294847 -0.020373192 -0.098777495 0.16859588

fc2.bias f4 [64]
000000 57 d6 8a bd d7 c4 55 3d 27 97 25 3d 21 f4 3c 3c
       -0.06779163 0.052189674 0.040427353 0.011532814
000010 d6 d9 46 3e 02 f9 05 be 2e c6 3b bd b1 c8 9d 3d
       0.19419035 -0.1308327 -0.045843296 0.077042945
000020 6f d0 7d 3e 25 9d c3 3e a3 2e 17 be 1f b7 44 3e
       0.24786542 0.3820583 -0.14763884 0.1921048
000030 f4 f9 98 3e e6 76 c5 bd 42 3f 9e bd b8 01 ed 3d
       0.298782 -0.09641819 -0.07726909 0.115725935
000040 cb c4 ce 3d 5c 83 26 bd 7b d0 7c bd 74 84 38 3e
       0.10096129 -0.040652618 -0.06172226 0.18019277
000050 b1 f8 86 3e f9 3d c6 3e 1b fd 32 be ab 8a 01 be
       0.2636161 0.38719156 -0.17479365 -0.12650554
000060 b8 b1 9d bd 94 f8 8c bd d0 96 f5 3c 3b 51 5d bd
       -0.07699913 -0.0688335 0.02997914 -0.054032546
000070 71 f1 1f ba 4c f0 a6 3d d8 e7 b9 3d 38 f3 26 bc
       -0.0006101346 0.08151302 0.09077424 -0.010189824
000080 94 83 41 bd 43 d4 a7 3d c8 fa 92 3d b0 9c d7 bd
       -0.047244623 0.081947826 0.07176739 -0.10527933
000090 5e da 35 bd a5 47 75 bd 25 eb b0 3c 44 9a f7 bb
       -0.044397704 -0.05988278 0.0215965 -0.0075562317
0000a0 17 63 e8 bd d1 bc e7 3e e5 5f 9c 3e 19 70 8e bd
       -0.11347025 0.45261243 0.30541912 -0.06954975
0000b0 e2 74 8b 3d 5b 0e 38 be 39 e7 7e 3e 93 bb 27 be
       0.06809403 -0.17974226 0.24892892 -0.16380148
0000c0 48 1b 05 3d 71 75 14 be 80 67 ea bc 0e b4 b9 3e
       0.03249672 -0.14497925 -0.028613806 0.36270183
0000d0 9d 92 1e 3c 6f 71 d2 bd 92 5a 3b 3e 49 00 c9 bd
       0.00967851 -0.10275542 0.18296269 -0.098145075
0000e0 b3 96 f4 bd 7f d2 eb bd 1c 6c f1 3c d5 4c 50 bc
       -0.11942806 -0.11514758 0.029470496 -0.012713631
0000f0 5e da de ba f5 d8 91 3e ba 68 c4 3d 47 14 c6 bc
       -0.0017002334 0.28485838 0.095902875 -0.02417959

fc3.weight f4 [4, 64]
000000 52 7d 42 3e c7 c9 94 3e a0 4d 8a 3e fa 74 f2 3d
       0.18993118 0.29060194 0.27012348 0.11838718
000010 03 28 46 3e 26 2b 37 be 20 92 1b 3e e3 4b c0 be
       0.19351201 -0.17887554 0.15192461 -0.37557897
000020 31 01 51 3e 2b e7 f9 3d 6f e1 60 be 45 4a 29 3e
       0.2041061 0.12202295 -0.21960996 0.16532238
000030 e2 1d 78 3e 0d 8c b0 bd f5 94 8f bc c7 a7 23 3d
       0.2423015 -0.086204626 -0.017527083 0.039954927
000040 a6 64 4b 3d 83 38 62 3b 68 4c a5 3e 32 b1 3b 3e
       0.049656533 0.0034518547 0.32284856 0.18329313
000050 30 aa b1 3d 2f 7f 1d 3e 9e d6 25 3c 93 bb 9e be
       0.08675039 0.15380548 0.0101219695 -0.31002483
000060 7d ce 22 be fd 45 16 bf 18 ea 88 be a7 7c 49 be
       -0.15899082 -0.58700544 -0.267411 -0.19676457
000070 64 83 10 3f fa 44 f6 3e a3 b5 fb be 54 04 e9 3d
       0.56450486 0.480995 -0.49162015 0.11377779
000080 5f 91 90 bd d2 b6 11 3f d1 31 10 3e d8 20 c2 ba
       -0.07058977 0.56919587 0.14081503 -0.0014810814
000090 92 50 31 3e f3 9f 85 be 5b a4 e4 bd 6e 17 3b 3e
       0.17315891 -0.26098594 -0.11164161 0.18270656
0000a0 7f 53 a1 bd 09 76 25 3e 6b b9 e0 3d 3b 6e e4 3d
       -0.07877254 0.16158308 0.10972866 0.11153837
0000b0 64 6c df 3e 9b c0 33 bd 1d 23 3c 3e 4c d0 ab 3d
       0.43637383 -0.043884855 0.1837277 0.08389339
0000c0 c4 5d 1c be 85 aa 25 3e 5d e8 e4 3d 40 17 ee 3d
       -0.15270144 0.1617833 0.11177132 0.11625528
0000d0 94 7d 39 3e 49 e1 62 bd a7 37 dd 3d f0 bc b4 bd
       0.1811431 -0.05539063 0.108016305 -0.088250995
0000e0 19 27 d1 be f8 6e cb bd 90 46 fc 3d 46 3c 67 3e
       -0.40850142 -0.09933275 0.12318146 0.22581586
0000f0 17 44 eb bd 6c 0b 53 3e 45 0a 54 bd c7 d9 8d 3e
       -0.114875965 0.20609826 -0.051767606 0.27705213
000100 e4 97 fc 3e ef 6d 3c 3e a0 b9 9a 3e 10 84 95 3e
       0.49334633 0.18401311 0.30219746 0.29202318
000110 7c 26 05 3e cf 19 21 be a8 1c 47 3e 7a c2 91 bd
       0.13002962 -0.15732501 0.19444525 -0.071171716
000120 31 53 c3 3d 37 66 d4 3d 26 dc 61 be f9 18 8f 3e
       0.09537352 0.103710584 -0.22056636 0.2794874
000130 f5 d2 84 3e f7 ec 6d bd 36 54 c6 bc 8f 4a 08 3e
       0.25942197 -0.058087315 -0.024210077 0.13309692
000140 fc 33 1b 3e be a9 d4 3c b5 f7 9b 3d e0 45 ee 3d
       0.15156549 0.025959846 0.07615606 0.11634421
000150 a0 91 19 3e ee 2e 50 3e 8b 44 60 bd 89 91 4b be
       0.14996958 0.20330402 -0.054752868 -0.19879736
000160 96 53 b4 bd 4f 7a 8f bd e9 3e 23 be 7d 34 a0 be
       -0.08805005 -0.070057504 -0.15941967 -0.31290045
000170 0c 00 c5 3e 09 5a ab 3e 44 65 2d 3c 72 2a e2 3d
       0.38476598 0.3346713 0.010583226 0.11043252
000180 c7 5a fb 3d 63 9d 59 3e 91 1b 04 3e 3e 53 71 bd
       0.12273174 0.21251445 0.12901141 -0.058917277
000190 5e 0c aa 3e 2e 06 54 be 9c 79 15 3d 96 02 f6 3e
       0.3321256 -0.20705482 0.03649293 0.48048848
0001a0 4f a3 5f 3d eb c7 37 3e 5c a9 98 3d d4 39 b6 3d
       0.054599103 0.17947356 0.07454178 0.088977486
0001b0 86 93 b7 3e f1 42 0b be bc dc 3f 3e 3c 88 80 bd
       0.3585474 -0.13599755 0.18736547 -0.06275985
0001c0 95 98 99 3d a9 9e 24 bd 16 32 2e 3e 17 b5 f1 3c
       0.07499806 -0.040190373 0.17011294 0.029505296
0001d0 b5 f0 52 3e d4 b9 94 bd 23 1f b3 3d b3 65 04 bd
       0.20599635 -0.072620064 0.08746173 -0.03232355
0001e0 a6 37 4f be 52 9b c3 bd b1 49 79 3e f0 08 28 3e
       -0.20236072 -0.095511094 0.24344517 0.1640966
0001f0 a1 c6 09 be a8 bd 8a 3d ac e8 91 bd 3e 80 9a 3e
       -0.13454677 0.06774455 -0.07124457 0.30175966
000200 25 e3 d2 3e af 08 09 3e c4 46 bb 3e 35 6d c5 3e
       0.41188923 0.13382219 0.36577427 0.3855988
000210 cc 20 6d 3e 09 78 4f 3d dc d1 8e 3e d6 31 2a be
       0.23157042 0.050651584 0.27894485 -0.16620573
000220 32 60 b9 3d 7e 28 de 3d 33 36 c3 be 74 1b 83 3e
       0.09051551 0.10847567 -0.38127288 0.25606883
000230 0f 3a c6 3e 93 48 60 be 66 5c 98 bd 01 9a 9c 3d
       0.3871617 -0.21902685 -0.074394986 0.076465614
000240 a2 5a 14 3e d7 f4 f3 be 1c f7 0f 3f 7c dc 10 3d
       0.14487699 -0.47647735 0.56236434 0.03536652
000250 df be 88 3d fa f3 a4 3e 30 c0 54 be 67 12 0c 3d
       0.06677031 0.3221739 -0.20776439 0.034197237
000260 70 77 94 3e aa af 7c be 32 36 c9 bd 66 14 66 be
       0.28997374 -0.24676386 -0.0982479 -0.22468719
000270 a1 2f 9e 3e 90 49 c5 3e 29 de 1b be a0 66 49 b8
       0.30895713 0.38532686 -0.15221466 -4.801771e-05
000280 99 ef 16 bd 53 ed a4 3e 5c a6 42 3e 94 25 d0 3d
       -0.036849592 0.32212314 0.19008774 0.101634175
000290 b2 7b 32 3d 6f a9 fd bd 8b 3b dc bb 3a 6a 97 be
       0.043574996 -0.123858325 -0.0067209653 -0.29573232
0002a0 bd 7c 29 be 55 f9 19 3e 72 a9 19 3e d6 4f ed bd
       -0.1655149 0.15036519 0.15006045 -0.11587493
0002b0 59 da 09 3e 4c 5f 23 be 65 74 13 3e 3b c1 87 3d
       0.134622 -0.15954322 0.1439987 0.06628653
0002c0 e3 ec 2c 3e a8 4f 84 3e df e9 30 3e 57 91 53 3e
       0.1688724 0.25842023 0.17276715 0.20660912
0002d0 66 77 2c 3e 37 b2 46 3e ac f4 ba 3d 6f bc 34 3e
       0.16842422 0.19403921 0.09128699 0.17650007
0002e0 94 f8 88 bd fa 96 82 be 5c 85 9d 3e 82 ff 0d 3d
       -0.066880375 -0.2550581 0.30765808 0.0346675
0002f0 d1 3f 84 be c8 b9 5d 3d c7 8c 22 bf 83 ed a4 3d
       -0.25829938 0.054132253 -0.6349606 0.08053114
000300 d3 00 c5 bd e7 50 4e 3e 12 dc eb bc 54 01 b3 bb
       -0.09619298 0.2014805 -0.028791461 -0.005462805
000310 26 72 92 3d b9 6f 62 be 62 fb 11 bb 05 07 9b 3c
       0.07150678 -0.22112931 -0.002227508 0.018924246
000320 07 c1 24 3e 4c 31 46 3e 77 b4 99 bd 06 5e f3 3d
       0.16089259 0.19354743 -0.07505124 0.11883168
000330 d9 04 89 3e fd 6b 12 bd 96 b8 84 3d b8 b1 30 3c
       0.2676151 -0.035747517 0.064805195 0.010784559
000340 37 04 9a 3e 05 90 7b 3e 76 1c 24 be fc e9 13 3e
       0.3008134 0.24566658 -0.16026482 0.14444727
000350 01 0a 91 3d 60 59 9f 3e 78 bf b6 bd d8 8f 42 3d
       0.07081986 0.31122875 -0.089232385 0.04750046
000360 28 f4 68 3e ff eb fd be 5e 13 a3 be 53 7c 45 be
       0.22749388 -0.49594113 -0.31850713 -0.19285707
000370 77 8f b3 3e 22 ea 4d 3e 62 bd 50 be 20 b1 25 3e
       0.35070392 0.20108846 -0.20384744 0.16180849
000380 27 21 99 be f1 c8 ae 3e e0 f3 22 3e ba 9b b7 ba
       -0.29908106 0.3413768 0.15913343 -0.0014008202
000390 ea 0d f9 bd 03 5b 9b bd e7 7f e5 3e 4f d9 0a 3f
       -0.12160857 -0.075857185 0.44824144 0.54237837
0003a0 11 7c cc be 65 db 3e 3e e8 9a eb 3d fd 4c af be
       -0.39938405 0.1863838 0.115041554 -0.34238425
0003b0 65 67 03 3f dc c6 a2 be ec 53 e7 3d 20 07 f7 bb
       0.5132964 -0.31792343 0.11295304 -0.007538691
0003c0 03 d0 83 bc 96 03 dd 3d cc d6 b1 3e e7 4b e2 3d
       -0.016090399 0.107916996 0.3473419 0.110496335
0003d0 04 6c 5b 3e c1 81 71 3d 56 52 d4 3d f7 e2 81 b9
       0.21427923 0.058961634 0.10367267 -0.000247739
0003e0 64 f6 97 be 52 a6 ab bd 0c b9 8c be 09 a4 54 3e
       -0.2968017 -0.083813325 -0.2748493 0.207657
0003f0 2a fe b5 be 8c a9 c8 3d 38 0a b7 bd 31 1c 01 3f
       -0.35545474 0.097979635 -0.08937496 0.5043364

fc3.bias f4 [4]
000000 50 bd 83 3e bc 74 82 3e f2 da 02 3e 7b 5e 27 3e
       0.2573037 0.25479686 0.12778834 0.16344635
